…
Test set: Average loss: 0.0144, Accuracy: 6778/10000 (68%)

Train Epoch: 7 [0/50000 (0%)]	Loss: 1.028469

Test set: Average loss: 0.0142, Accuracy: 6943/10000 (69%)

Train Epoch: 8 [0/50000 (0%)]	Loss: 0.584985

Test set: Average loss: 0.0144, Accuracy: 6872/10000 (69%)

Train Epoch: 9 [0/50000 (0%)]	Loss: 0.799062

Test set: Average loss: 0.0135, Accuracy: 7048/10000 (70%)

------------原模型--------------
----------------------------------------------------------------
        Layer (type)               Output Shape         Param #
================================================================
            Conv2d-1           [-1, 16, 62, 62]             448
              ReLU-2           [-1, 16, 62, 62]               0
            Conv2d-3           [-1, 32, 60, 60]           4,640
              ReLU-4           [-1, 32, 60, 60]               0
            Conv2d-5           [-1, 64, 58, 58]          18,496
              ReLU-6           [-1, 64, 58, 58]               0
 AdaptiveAvgPool2d-7             [-1, 64, 5, 5]               0
            Linear-8                   [-1, 10]          16,010
================================================================
Total params: 39,594
Trainable params: 39,594
Non-trainable params: 0
----------------------------------------------------------------
Input size (MB): 0.05
Forward/backward pass size (MB): 5.99
Params size (MB): 0.15
Estimated Total Size (MB): 6.19
----------------------------------------------------------------
------------原模型精度--------------
…
0.040587003574288634
0.026884839498780785
Conv2d(3, 16, kernel_size=(3, 3), stride=(1, 1)) VBMF Estimated ranks [0, 1]
this conv_layer failed
old_module = Linear(in_features=1600, out_features=10, bias=True)
new_module = Sequential(
  (0): Linear(in_features=5, out_features=1600, bias=False)
  (1): Linear(in_features=10, out_features=5, bias=True)
)
this linear_layer successed
----------------------------------------------------------------
        Layer (type)               Output Shape         Param #
================================================================
            Conv2d-1           [-1, 16, 62, 62]             448
              ReLU-2           [-1, 16, 62, 62]               0
            Conv2d-3            [-1, 8, 62, 62]             128
            Conv2d-4           [-1, 12, 60, 60]             864
            Conv2d-5           [-1, 32, 60, 60]             416
              ReLU-6           [-1, 32, 60, 60]               0
            Conv2d-7           [-1, 18, 60, 60]             576
            Conv2d-8           [-1, 24, 58, 58]           3,888
            Conv2d-9           [-1, 64, 58, 58]           1,600
             ReLU-10           [-1, 64, 58, 58]               0
AdaptiveAvgPool2d-11             [-1, 64, 5, 5]               0
           Linear-12                    [-1, 5]           8,000
           Linear-13                   [-1, 10]              60
================================================================
Total params: 15,980
Trainable params: 15,980
Non-trainable params: 0
----------------------------------------------------------------
Input size (MB): 0.05
Forward/backward pass size (MB): 7.67
Params size (MB): 0.06
Estimated Total Size (MB): 7.78
----------------------------------------------------------------
-----------压缩模型精度--------------
…
